TRAINING STARTED...
Trial 1/25
GNN(
  (layers): ModuleList(
    (0): GINConv(nn=Sequential(
      (0): Linear(in_features=1, out_features=64, bias=True)
      (1): BatchNorm1d(64, eps=1e-05, momentum=0.1, affine=True, track_running_stats=True)
      (2): ReLU()
      (3): Linear(in_features=64, out_features=64, bias=True)
    ))
    (1-3): 3 x GINConv(nn=Sequential(
      (0): Linear(in_features=64, out_features=64, bias=True)
      (1): BatchNorm1d(64, eps=1e-05, momentum=0.1, affine=True, track_running_stats=True)
      (2): ReLU()
      (3): Linear(in_features=64, out_features=64, bias=True)
    ))
    (4): GINConv(nn=Sequential(
      (0): Linear(in_features=64, out_features=2, bias=True)
      (1): BatchNorm1d(2, eps=1e-05, momentum=0.1, affine=True, track_running_stats=True)
      (2): ReLU()
      (3): Linear(in_features=2, out_features=2, bias=True)
    ))
  )
  (dropout): Dropout(p=0, inplace=False)
  (act_fn): ReLU()
  (MLP): Linear(in_features=136, out_features=5, bias=True)
  (MLP_Eigen): Linear(in_features=5, out_features=5, bias=True)
)
Number of parameters:  30615
Epoch 1, Train acc: 0.66, Validation acc: 0.62 (new best validation), Test acc: 0.7
Epoch 2, Train acc: 0.62, Validation acc: 0.55, Test acc: 0.61
Epoch 3, Train acc: 0.66, Validation acc: 0.64 (new best validation), Test acc: 0.7
Epoch 4, Train acc: 0.68, Validation acc: 0.65 (new best validation), Test acc: 0.7
Epoch 5, Train acc: 0.63, Validation acc: 0.64, Test acc: 0.65
…
