TRAINING STARTED...
Trial 1/25
USING POSITIONAL ENCODING:  LaPE
USING POSITIONAL ENCODING:  LaPE
GNN(
  (layers): ModuleList(
    (0): GINConv(nn=Sequential(
      (0): Linear(in_features=8, out_features=64, bias=True)
      (1): BatchNorm1d(64, eps=1e-05, momentum=0.1, affine=True, track_running_stats=True)
      (2): ReLU()
      (3): Linear(in_features=64, out_features=64, bias=True)
    ))
    (1-3): 3 x GINConv(nn=Sequential(
      (0): Linear(in_features=64, out_features=64, bias=True)
      (1): BatchNorm1d(64, eps=1e-05, momentum=0.1, affine=True, track_running_stats=True)
      (2): ReLU()
      (3): Linear(in_features=64, out_features=64, bias=True)
    ))
    (4): GINConv(nn=Sequential(
      (0): Linear(in_features=64, out_features=2, bias=True)
      (1): BatchNorm1d(2, eps=1e-05, momentum=0.1, affine=True, track_running_stats=True)
      (2): ReLU()
      (3): Linear(in_features=2, out_features=2, bias=True)
    ))
  )
  (dropout): Dropout(p=0, inplace=False)
  (act_fn): ReLU()
  (MLP): Linear(in_features=620, out_features=5, bias=True)
  (MLP_Eigen): Linear(in_features=5, out_features=5, bias=True)
)
Number of parameters:  33483
Error en la matriz
Error en la matriz
Epoch 1, Train acc: 0.59, Validation acc: 0.55 (new best validation), Test acc: 0.6517857142857143
Error en la matriz
Error en la matriz
Epoch 2, Train acc: 0.59, Validation acc: 0.55, Test acc: 0.6517857142857143
Error en la matriz
Error en la matriz
Epoch 3, Train acc: 0.59, Validation acc: 0.55, Test acc: 0.6517857142857143
…
