TRAINING STARTED...
Trial 1/25
GNN(
  (layers): ModuleList(
    (0): GINConv(nn=Sequential(
      (0): Linear(in_features=1, out_features=64, bias=True)
      (1): BatchNorm1d(64, eps=1e-05, momentum=0.1, affine=True, track_running_stats=True)
      (2): ReLU()
      (3): Linear(in_features=64, out_features=64, bias=True)
    ))
    (1-3): 3 x GINConv(nn=Sequential(
      (0): Linear(in_features=64, out_features=64, bias=True)
      (1): BatchNorm1d(64, eps=1e-05, momentum=0.1, affine=True, track_running_stats=True)
      (2): ReLU()
      (3): Linear(in_features=64, out_features=64, bias=True)
    ))
    (4): GINConv(nn=Sequential(
      (0): Linear(in_features=64, out_features=2, bias=True)
      (1): BatchNorm1d(2, eps=1e-05, momentum=0.1, affine=True, track_running_stats=True)
      (2): ReLU()
      (3): Linear(in_features=2, out_features=2, bias=True)
    ))
  )
  (dropout): Dropout(p=0, inplace=False)
  (act_fn): ReLU()
  (MLP): Linear(in_features=3782, out_features=5, bias=True)
  (MLP_Eigen): Linear(in_features=5, out_features=5, bias=True)
)
Number of parameters:  48845
Epoch 1, Train acc: 0.52, Validation acc: 0.53 (new best validation), Test acc: 0.485
Epoch 2, Train acc: 0.62, Validation acc: 0.63 (new best validation), Test acc: 0.625
Epoch 3, Train acc: 0.61, Validation acc: 0.61, Test acc: 0.65
Epoch 4, Train acc: 0.65, Validation acc: 0.66 (new best validation), Test acc: 0.685
Epoch 5, Train acc: 0.66, Validation acc: 0.67 (new best validation), Test acc: 0.66
…
